…
93657,"user_tz":-180,"elapsed":4530,"user":{"displayName":"Vafelka","userId":"11276804272897708630"}},"outputId":"d09e9609-e753-4a42-91e5-623a6d386cf8"},"execution_count":null,"outputs":[{"output_type":"stream","name":"stdout","text":["[0, 6, 3, 3, 0, 3, 0, 9, 2, 0, 2, 4, 1, 10, 4, 1, 4, 0, 1, 6, 1, 3, 1, 1, 2]\n","Длина бота 25\n","Model: \"sequential\"\n","_________________________________________________________________\n"," Layer (type)                Output Shape              Param #   \n","=================================================================\n"," conv1d (Conv1D)             (None, 300, 64)           832       \n","                                                                 \n"," conv1d_1 (Conv1D)           (None, 300, 1024)         263168    \n","                                                                 \n"," max_pooling1d (MaxPooling1  (None, 75, 1024)          0         \n"," D)                                                              \n","                                                                 \n"," dense (Dense)               (None, 75, 64)            65600     \n","                                                                 \n"," flatten (Flatten)           (None, 4800)              0         \n","                                                                 \n"," batch_normalization (Batch  (None, 4800)              19200     \n"," Normalization)                                                  \n","                                                                 \n"," dense_1 (Dense)             (None, 8)                 38408     \n","                                                                 \n"," dense_2 (Dense)             (None, 1)                 9         \n","                                                                 \n","=================================================================\n","Total params: 387217 (1.48 MB)\n","Trainable params: 377617 (1.44 MB)\n","Non-trainable params: 9600 (37.50 KB)\n","_________________________________________________________________\n"]}]},{"cell_type":"code","source":["def eval_net(net, ep, verb
…
andnet(bot,\n","                        inputShape[1],\n","                        inputShape[2],\n","                        outputShape[1])\n","model_1.summary()\n"],"execution_count":null,"outputs":[{"output_type":"stream","name":"stdout","text":["[0, 8, 4, 0, 0, 1, 1, 8, 2, 1, 2, 1, 1, 8, 2, 1, 1, 2, 0, 10, 1, 4, 4, 0, 3]\n","Model: \"sequential_72\"\n","_________________________________________________________________\n"," Layer (type)                Output Shape              Param #   \n","=================================================================\n"," conv1d_137 (Conv1D)         (None, 300, 256)          4352      \n","                                                                 \n"," conv1d_138 (Conv1D)         (None, 300, 256)          131328    \n","                                                                 \n"," max_pooling1d_98 (MaxPooli  (None, 150, 256)          0         \n"," ng1D)                                                           \n","                                                                 \n"," conv1d_139 (Conv1D)         (None, 150, 256)          131328    \n","                                                                 \n"," max_pooling1d_99 (MaxPooli  (None, 150, 256)          0         \n"," ng1D)                                                           \n","                                                                 \n"," flatten_64 (Flatten)        (None, 38400)             0         \n","                                                                 \n"," dense_175 (Dense)           (None, 16)                614416    \n","                                                                 \n"," dense_176 (Dense)           (None, 1)                 17        \n","                                                                 \n","=================================================================\n","Total params: 881441 (3.36 MB)\n","Trainable params: 881441 (3.36 MB)\n","Non-trainable params: 0 (0.00 Byte)\n","_________________________________________________________________\n"]}]},{"cell_type":"code","metadata":{"colab":{"base_uri":"https:/
…
andnet(bot,\n","                        inputShape[1],\n","                        inputShape[2],\n","                        outputShape[1])\n","model_2.summary()\n"],"execution_count":null,"outputs":[{"output_type":"stream","name":"stdout","text":["[0, 7, 4, 3, 0, 1, 1, 7, 2, 1, 3, 1, 1, 8, 2, 1, 3, 4, 0, 8, 1, 10, 4, 0, 3]\n","Model: \"sequential_73\"\n","_________________________________________________________________\n"," Layer (type)                Output Shape              Param #   \n","=================================================================\n"," conv1d_140 (Conv1D)         (None, 300, 128)          2176      \n","                                                                 \n"," conv1d_141 (Conv1D)         (None, 300, 128)          32896     \n","                                                                 \n"," max_pooling1d_100 (MaxPool  (None, 100, 128)          0         \n"," ing1D)                                                          \n","                                                                 \n"," conv1d_142 (Conv1D)         (None, 100, 256)          65792     \n","                                                                 \n"," max_pooling1d_101 (MaxPool  (None, 33, 256)           0         \n"," ing1D)                                                          \n","                                                                 \n"," flatten_65 (Flatten)        (None, 8448)              0         \n","                                                                 \n"," dense_177 (Dense)           (None, 1024)              8651776   \n","                                                                 \n"," dense_178 (Dense)           (None, 1)                 1025      \n","                                                                 \n","=================================================================\n","Total params: 8753665 (33.39 MB)\n","Trainable params: 8753665 (33.39 MB)\n","Non-trainable params: 0 (0.00 Byte)\n","_________________________________________________________________\n"]}]},{"cell_type":"code","metadata":{"colab":{"base_uri":"https
…
