…
:"Srhp9xmW7tUR","executionInfo":{"status":"ok","timestamp":1639153616496,"user_tz":-180,"elapsed":25,"user":{"displayName":"Vafelka","photoUrl":"https://lh3.googleusercontent.com/a/default-user=s64","userId":"11276804272897708630"}},"outputId":"eb50af51-c737-4ae0-f99f-d06888e8e7de"},"execution_count":15,"outputs":[{"output_type":"stream","name":"stdout","text":["----------------------------------------------------------------\n","        Layer (type)               Output Shape         Param #\n","================================================================\n","            Conv2d-1         [-1, 64, 400, 400]           1,792\n","              ReLU-2         [-1, 64, 400, 400]               0\n","            Conv2d-3         [-1, 64, 400, 400]          36,928\n","              ReLU-4         [-1, 64, 400, 400]               0\n","         AvgPool2d-5         [-1, 64, 200, 200]               0\n","            Conv2d-6        [-1, 128, 200, 200]          73,856\n","              ReLU-7        [-1, 128, 200, 200]               0\n","            Conv2d-8        [-1, 128, 200, 200]         147,584\n","              ReLU-9        [-1, 128, 200, 200]               0\n","        AvgPool2d-10        [-1, 128, 100, 100]               0\n","           Conv2d-11        [-1, 256, 100, 100]         295,168\n","             ReLU-12        [-1, 256, 100, 100]               0\n","           Conv2d-13        [-1, 256, 100, 100]         590,080\n","             ReLU-14        [-1, 256, 100, 100]               0\n","           Conv2d-15        [-1, 256, 100, 100]         590,080\n","             ReLU-16        [-1, 256, 100, 100]               0\n","           Conv2d-17        [-1, 256, 100, 100]         590,080\n","             ReLU-18        [-1, 256, 100, 100]               0\n","        AvgPool2d-19          [-1, 256, 50, 50]               0\n","           Conv2d-20          [-1, 512, 50, 50]       1,180,160\n","             ReLU-21          [-1, 512, 50, 50]               0\n","           Conv2d-22          [-1, 512, 50, 50]       2,359,808\n","             ReLU-23          [-1, 512, 50, 50]               0\n","           Conv2d-24          [-1, 512, 50, 50]       2,359,808\n","             ReLU-25          [-1, 512, 50, 50]               0\n","           Conv2d-26          [-1, 512, 50, 50]       2,359,808\n","             ReLU-27          [-1, 512, 50, 50]               0\n","        AvgPool2d-28          [-1, 512, 25, 25]               0\n","           Conv2d-29          [-1, 512, 25, 25]       2,359,808\n","             ReLU-30          [-1, 512, 25, 25]               0\n","           Conv2d-31          [-1, 512, 25, 25]       2,359,808\n","             ReLU-32          [-1, 512, 25, 25]               0\n","           Conv2d-33          [-1, 512, 25, 25]       2,359,808\n","             ReLU-34          [-1, 512, 25, 25]               0\n","           Conv2d-35          [-1, 512, 25, 25]       2,359,808\n","             ReLU-36          [-1, 512, 25, 25]               0\n","        AvgPool2d-37          [-1, 512, 12, 12]               0\n","================================================================\n","Total params: 20,024,384\n","Trainable params: 20,024,384\n","Non-trainable params: 0\n","----------------------------------------------------------------\n","Input size (MB): 1.83\n","Forward/backward pass size (MB): 759.84\n","Params size (MB): 76.39\n","Estimated Total Size (MB): 838.06\n","-------------------------------
…
