…
                     validation_generator,\n","                         test_generator,\n","                         epochs = 100,\n","                         class_labels=CLASS_LIST,\n","                         title='Сверточный классификатор')"],"execution_count":null,"outputs":[{"output_type":"stream","name":"stdout","text":["Model: \"sequential_2\"\n","_________________________________________________________________\n"," Layer (type)                Output Shape              Param #   \n","=================================================================\n"," batch_normalization_8 (Bat  (None, 224, 224, 3)       12        \n"," chNormalization)                                                \n","                                                                 \n"," conv2d_16 (Conv2D)          (None, 224, 224, 128)     3584      \n","                                                                 \n"," conv2d_17 (Conv2D)          (None, 224, 224, 128)     147584    \n","                                                                 \n"," max_pooling2d_8 (MaxPoolin  (None, 74, 74, 128)       0         \n"," g2D)                                                            \n","                                                                 \n"," dropout_8 (Dropout)         (None, 74, 74, 128)       0         \n","                                                                 \n"," batch_normalization_9 (Bat  (None, 74, 74, 128)       512       \n"," chNormalization)                                                \n","                                                                 \n"," conv2d_18 (Conv2D)          (None, 74, 74, 256)       295168    \n","                                                                 \n"," conv2d_19 (Conv2D)          (None, 74, 74, 256)       590080    \n","                                                                 \n"," max_pooling2d_9 (MaxPoolin  (None, 24, 24, 256)       0         \n"," g2D)                                                            \n","                                                                 \n"," dropout_9 (Dropout)         (None, 24, 24, 256)       0         \n","                                                                 \n"," batch_normalization_10 (Ba  (None, 24, 24, 256)       1024      \n"," tchNormalization)                                               \n","                                                                 \n"," conv2d_20 (Conv2D)          (None, 24, 24, 512)       1180160   \n","                                                                 \n"," conv2d_21 (Conv2D)          (None, 24, 24, 512)       2359808   \n","                                                                 \n"," max_pooling2d_10 (MaxPooli  (None, 8, 8, 512)         0         \n"," ng2D)                                                           \n","                                                                 \n"," dropout_10 (Dropout)        (None, 8, 8, 512)         0         \n","                                                                 \n"," batch_normalization_11 (Ba  (None, 8, 8, 512)         2048      \n"," tchNormalization)                                               \n","                                                                 \n"," conv2d_22 (Conv2D)          (None, 8, 8, 256)         1179904   \n","                                                                 \n"," conv2d_23 (Conv2D)          (None, 8, 8, 256)         590080    \n","                                                                 \n"," max_pooling2d_11 (MaxPooli  (None, 4, 4, 256)         0         \n"," ng2D)                                                           \n","                                                                 \n"," dropout_11 (Dropout)        (None, 4, 4, 256)         0         \n","                                                                 \n"," flatten_2 (Flatten)         (None, 4096)              0         \n","                                                                 \n"," dense_6 (Dense)             (None, 1024)              4195328   \n","                                                                 \n"," dense_7 (Dense)             (None, 1546)              1584650   \n","                                                                 \n"," dense_8 (Dense)             (None, 5)                 7735      \n","                                                                 \n","=================================================================\n","Total params: 12137677 (46.30 MB)\n","Trainable params: 12135879 (46.29 MB)\n","Non-trainable params: 1798 (7.02 KB)\n","_________________________________________________________________\n","Epoch 1/100\n","143/143 [==============================] -
…
