…
64  256        ['dropout[0][0]']                \n"," alization)                     )                                                                 \n","                                                                                                  \n"," leaky_re_lu (LeakyReLU)        (None, 156, 156, 64  0           ['batch_normalization[0][0]']    \n","                                )                                                                 \n","                                                                                                  \n"," conv2d_1 (Conv2D)              (None, 52, 52, 78)   45006       ['leaky_re_lu[0][0]']            \n","                                                                                                  \n"," dropout_1 (Dropout)            (None, 52, 52, 78)   0           ['conv2d_1[0][0]']               \n","                                                                                                  \n"," batch_normalization_1 (BatchNo  (None, 52, 52, 78)  312         ['dropout_1[0][0]']              \n"," rmalization)                                                                                     \n","                                                                                                  \n"," leaky_re_lu_1 (LeakyReLU)      (None, 52, 52, 78)   0           ['batch_normalization_1[0][0]']  \n","                                                                                                  \n"," conv2d_2 (Conv2D)              (None, 26, 26, 104)  73112       ['leaky_re_lu_1[0][0]']          \n","                                                                                                  \n"," dropout_2 (Dropout)            (None, 26, 26, 104)  0           ['conv2d_2[0][0]']               \n","                                                                                                  \n"," batch_normalization_2 (BatchNo  (None, 26, 26, 104)  416        ['dropout_2[0][0]']              \n"," rmalization)                                                                                     \n","                                                                                                  \n"," leaky_re_lu_2 (LeakyReLU)      (None, 26, 26, 104)  0           ['batch_normalization_2[0][0]']  \n","                                                                                                  \n"," conv2d_3 (Conv2D)              (None, 13, 13, 128)  119936      ['leaky_re_lu_2[0][0]']          \n","                                                                                                  \n"," dropout_3 (Dropout)            (None, 13, 13, 128)  0           ['conv2d_3[0][0]']               \n","                                                                                                  \n"," batch_normalization_3 (BatchNo  (None, 13, 13, 128)  512        ['dropout_3[0][0]']              \n"," rmalization)                                                                                     \n","                                                                                                  \n"," leaky_re_lu_3 (LeakyReLU)      (None, 13, 13, 128)  0           ['batch_normalization_3[0][0]']  \n","                                                                                                  \n"," conv2d_4 (Conv2D)              (None, 13, 13, 156)  179868      ['leaky_re_lu_3[0][0]']          \n","                                                                                                  \n"," dropout_4 (Dropout)            (None, 13, 13, 156)  0           ['conv2d_4[0][0]']               \n","                                                                                                  \n"," batch_normalization_4 (BatchNo  (None, 13, 13, 156)  624        ['dropout_4[0][0]']              \n"," rmalization)                                                                                     \n","                                                                                                  \n"," leaky_re_lu_4 (LeakyReLU)      (None, 13, 13, 156)  0           ['batch_normalization_4[0][0]']  \n","                                                                                                  \n"," flatten (Flatten)              (None, 26364)        0           ['leaky_re_lu_4[0][0]']          \n","                                                                                                  \n"," dense (Dense)                  (None, 2)            52730       ['flatten[0][0]']                \n","                                                                                                  \n"," dense_1 (Dense)                (None, 10)           30          ['dense[0][0]']                  \n","                                                                                                  \n"," dense_2 (Dense)                (None, 10)           30          ['dense[0][0]']                  \n","                                                                                                  \n"," lambda (Lambda)                (None, 10)           0           ['dense_1[0][0]',                \n","                                                                  'dense_2[0][0]']                \n","                                                                                                  \n","==================================================================================================\n","Total params: 474,624\n","Trainable params
…
Id":"11276804272897708630"}},"outputId":"0bc7ede2-c000-4f9c-b6b2-be9f44e6dc0b"},"source":["decoderVAEС.summary()"],"execution_count":null,"outputs":[{"output_type":"stream","name":"stdout","text":["Model: \"decoder\"\n","_________________________________________________________________\n"," Layer (type)                Output Shape              Param #   \n","=================================================================\n"," input_2 (InputLayer)        [(None, 10)]              0         \n","                                                                 \n"," dense_1 (Dense)             (None, 26364)             290004    \n","                                                                 \n"," reshape (Reshape)           (None, 13, 13, 156)       0         \n","                                                                 \n"," conv2d_transpose (Conv2DTra  (None, 13, 13, 156)      219180    \n"," nspose)                                                         \n","                                                                 \n"," dropout_5 (Dropout)         (None, 13, 13, 156)       0         \n","                                                                 \n"," batch_normalization_5 (Batc  (None, 13, 13, 156)      624       \n"," hNormalization)                                                 \n","                                                                 \n"," leaky_re_lu_5 (LeakyReLU)   (None, 13, 13, 156)       0         \n","                                                                 \n"," conv2d_transpose_1 (Conv2DT  (None, 26, 26, 128)      179840    \n"," ranspose)                                                       \n","                                                                 \n"," dropout_6 (Dropout)         (None, 26, 26, 128)       0         \n","                                                                 \n"," batch_normalization_6 (Batc  (None, 26, 26, 128)      512       \n"," hNormalization)                                                 \n","                                                                 \n"," leaky_re_lu_6 (LeakyReLU)   (None, 26, 26, 128)       0         \n","                                                                 \n"," conv2d_transpose_2 (Conv2DT  (None, 52, 52, 104)      119912    \n"," ranspose)                                                       \n","                                                                 \n"," dropout_7 (Dropout)         (None, 52, 52, 104)       0         \n","                                                                 \n"," batch_normalization_7 (Batc  (None, 52, 52, 104)      416       \n"," hNormalization)                                                 \n","                                                                 \n"," leaky_re_lu_7 (LeakyReLU)   (None, 52, 52, 104)       0         \n","                                                                 \n"," conv2d_transpose_3 (Conv2DT  (None, 156, 156, 78)     73086     \n"," ranspose)                                                       \n","                                                                 \n"," dropout_8 (Dropout)         (None, 156, 156, 78)      0         \n","                                                                 \n"," batch_normalization_8 (Batc  (None, 156, 156, 78)     312       \n"," hNormalization)                                                 \n","                                                                 \n"," leaky_re_lu_8 (LeakyReLU)   (None, 156, 156, 78)      0         \n","                                                                 \n"," conv_transpose_4 (Conv2DTra  (None, 156, 156, 3)      2109      \n"," nspose)                                                         \n","                                                                 \n","=================================================================\n","Total params: 885,995\n","Trainable params: 885,063\n","Non-trainable params: 932\n","_________________________________________________________________\n"]}]},{"cell_type":"code",
…
