…
чном наборе')\n","    plt.xticks(range(epochs))\n","    plt.xlabel('Эпоха')\n","    plt.ylabel('Точность')\n","    plt.legend()\n","    plt.show()\n","\n","    return model\n","\n","\n","model_2 = create_train_classifier_aug(x_train_aug.shape[1:])"],"execution_count":null,"outputs":[{"output_type":"stream","name":"stdout","text":["Model: \"sequential_4\"\n","_________________________________________________________________\n","Layer (type)                 Output Shape              Param #   \n","=================================================================\n","dense_16 (Dense)             (None, 512)               76288     \n","_________________________________________________________________\n","dropout_12 (Dropout)         (None, 512)               0         \n","_________________________________________________________________\n","batch_normalization_12 (Batc (None, 512)               2048      \n","_________________________________________________________________\n","dense_17 (Dense)             (None, 256)               131328    \n","_________________________________________________________________\n","dropout_13 (Dropout)         (None, 256)               0         \n","_________________________________________________________________\n","batch_normalization_13 (Batc (None, 256)               1024      \n","_________________________________________________________________\n","dense_18 (Dense)             (None, 128)               32896     \n","_________________________________________________________________\n","dropout_14 (Dropout)         (None, 128)               0         \n","_________________________________________________________________\n","batch_normalization_14 (Batc (None, 128)               512       \n","_________________________________________________________________\n","dense_19 (Dense)             (None, 7)                 903       \n","=================================================================\n","Total params: 244,999\n","Trainable params: 243,207\n","Non-trainable params: 1,792\n","_________________________________________________________________\n","Epoch 1/110\n","42/42 [==============================] - 4s 66ms/step - loss: 1.9992 - accuracy: 0.2693 - val_loss: 1.5824 - val_accuracy: 0.3860\n","Epoch 2/11
…
