…
2  0           ['Add_8[0][0]',                  \n","                                8)                                'leake_10[0][0]']               \n","                                                                                                  \n"," zero_padding2d_2 (ZeroPadding2  (None, 105, 105, 12  0          ['Add_11[0][0]']                 \n"," D)                             8)                                                                \n","                                                                                                  \n"," conv_12 (Conv2D)               (None, 52, 52, 256)  294912      ['zero_padding2d_2[0][0]']       \n","                                                                                                  \n"," bnorm_12 (BatchNormalization)  (None, 52, 52, 256)  1024        ['conv_12[0][0]']                \n","                                                                                                  \n"," leake_12 (LeakyReLU)           (None, 52, 52, 256)  0           ['bnorm_12[0][0]']               \n","                                                                                                  \n"," conv_13 (Conv2D)               (None, 52, 52, 128)  32768       ['leake_12[0][0]']               \n","                                                                                                  \n"," bnorm_13 (BatchNormalization)  (None, 52, 52, 128)  512         ['conv_13[0][0]']                \n","                                                                                                  \n"," leake_13 (LeakyReLU)           (None, 52, 52, 128)  0           ['bnorm_13[0][0]']               \n","                                                                                                  \n"," conv_14 (Conv2D)               (None, 52, 52, 256)  294912      ['leake_13[0][0]']               \n","                                                                                                  \n"," bnorm_14 (BatchNormalization)  (None, 52, 52, 256)  1024        ['conv_14[0][0]']                \n","                                                                                                  \n"," leake_14 (LeakyReLU)           (None, 52, 52, 256)  0           ['bnorm_14[0][0]']               \n","                                                                                                  \n"," Add_15 (Add)                   (None, 52, 52, 256)  0           ['leake_12[0][0]',               \n","                                                                  'leake_14[0][0]']               \n","                                                                                                  \n"," conv_16 (Conv2D)               (None, 52, 52, 128)  32768       ['Add_15[0][0]']                 \n","                                                                                                  \n"," bnorm_16 (BatchNormalization)  (None, 52, 52, 128)  512         ['conv_16[0][0]']                \n","                                                                                                  \n"," leake_16 (LeakyReLU)           (None, 52, 52, 128)  0           ['bnorm_16[0][0]']               \n","                                                                                                  \n"," conv_17 (Conv2D)               (None, 52, 52, 256)  294912      ['leake_16[0][0]']               \n","                                                                                                  \n"," bnorm_17 (BatchNormalization)  (None, 52, 52, 256)  1024        ['conv_17[0][0]']                \n","                                                                                                  \n"," leake_17 (LeakyReLU)           (None, 52, 52, 256)  0           ['bnorm_17[0][0]']               \n","                                                                                                  \n"," Add_18 (Add)                   (None, 52, 52, 256)  0           ['Add_15[0][0]',                 \n","                                                                  'leake_17[0][0]']               \n","                                                                                                  \n"," conv_19 (Conv2D)               (None, 52, 52, 128)  32768       ['Add_18[0][0]']                 \n","                                                                                                  \n"," bnorm_19 (BatchNormalization)  (None, 52, 52, 128)  512         ['conv_19[0][0]']                \n","                                                                                                  \n"," leake_19 (LeakyReLU)           (None, 52, 52, 128)  0           ['bnorm_19[0][0]']               \n","                                                                                                  \n"," conv_20 (Conv2D)               (None, 52, 52, 256)  294912      ['leake_19[0][0]']               \n","                                                                                                  \n"," bnorm_20 (BatchNormalization)  (None, 52, 52, 256)  1024        ['conv_20[0][0]']                \n","                                                                                                  \n"," leake_20 (LeakyReLU)           (None, 52, 52, 256)  0           ['bnorm_20[0][0]']               \n","                                                                                                  \n"," Add_21 (Add)                   (None, 52, 52, 256)  0           ['Add_18[0][0]',                 \n","                                                                  'leake_20[0][0]']               \n","                                                                                                  \n"," conv_22 (Conv2D)               (None, 52, 52, 128)  32768       ['Add_21[0][0]']                 \n","                                                                                                  \n"," bnorm_22 (BatchNormalization)  (None, 52, 52, 128)  512         ['conv_22[0][0]']                \n","                                                                                                  \n"," leake_22 (LeakyReLU)           (None, 52, 52, 128)  0           ['bnorm_22[0][0]']               \n","                                                                                                  \n"," conv_23 (Conv2D)               (None, 52, 52, 256)  294912      ['leake_22[0][0]']               \n","                                                                                                  \n"," bnorm_23 (BatchNormalization)  (None, 52, 52, 256)  1024        ['conv_23[0][0]']                \n","                                                                                                  \n"," leake_23 (LeakyReLU)           (None, 52, 52, 256)  0           ['bnorm_23[0][0]']               \n","                                                                                                  \n"," Add_24 (Add)                   (None, 52, 52, 256)  0           ['Add_21[0][0]',                 \n","                                                                  'leake_23[0][0]']               \n","                                                                                                  \n"," conv_25 (Conv2D)               (None, 52, 52, 128)  32768       ['Add_24[0][0]']                 \n","                                                                                                  \n"," bnorm_25 (BatchNormalization)  (None, 52, 52, 128)  512         ['conv_25[0][0]']                \n","                                                                                                  \n"," leake_25 (LeakyReLU)           (None, 52, 52, 128)  0           ['bnorm_25[0][0]']               \n","                                                                                                  \n"," conv_26 (Conv2D)               (None, 52, 52, 256)  294912      ['leake_25[0][0]']               \n","                                                                                                  \n"," bnorm_26 (BatchNormalization)  (None, 52, 52, 256)  1024        ['conv_26[0][0]']                \n","                                                                                                  \n"," leake_26 (LeakyReLU)           (None, 52, 52, 256)  0           ['bnorm_26[0][0]']               \n","                                                                                                  \n"," Add_27 (Add)                   (None, 52, 52, 256)  0           ['Add_24[0][0]',                 \n","                                                                  'leake_26[0][0]']               \n","                                                                                                  \n"," conv_28 (Conv2D)               (None, 52, 52, 128)  32768       ['Add_27[0][0]']                 \n","                                                                                                  \n"," bnorm_28 (BatchNormalization)  (None, 52, 52, 128)  512         ['conv_28[0][0]']                \n","                                                                                                  \n"," leake_28 (LeakyReLU)           (None, 52, 52, 128)  0           ['bnorm_28[0][0]']               \n","                                                                                                  \n"," conv_29 (Conv2D)               (None, 52, 52, 256)  294912      ['leake_28[0][0]']               \n","                                                                                                  \n"," bnorm_29 (BatchNormalization)  (None, 52, 52, 256)  1024        ['conv_29[0][0]']                \n","                                                                                                  \n"," leake_29 (LeakyReLU)           (None, 52, 52, 256)  0           ['bnorm_29[0][0]']               \n","                                                                                                  \n"," Add_30 (Add)                   (None, 52, 52, 256)  0           ['Add_27[0][0]',                 \n","                                                                  'leake_29[0][0]']               \n","                                                                                                  \n"," conv_31 (Conv2D)               (None, 52, 52, 128)  32768       ['Add_30[0][0]']                 \n","                                                                                                  \n"," bnorm_31 (BatchNormalization)  (None, 52, 52, 128)  512         ['conv_31[0][0]']                \n","                                                                                                  \n"," leake_31 (LeakyReLU)           (None, 52, 52, 128)  0           ['bnorm_31[0][0]']               \n","                                                                                                  \n"," conv_32 (Conv2D)               (None, 52, 52, 256)  294912      ['leake_31[0][0]']               \n","                                                                                                  \n"," bnorm_32 (BatchNormalization)  (None, 52, 52, 256)  1024        ['conv_32[0][0]']                \n","                                                                                                  \n"," leake_32 (LeakyReLU)           (None, 52, 52, 256)  0           ['bnorm_32[0][0]']               \n","                                                                                                  \n"," Add_33 (Add)                   (None, 52, 52, 256)  0           ['Add_30[0][0]',                 \n","                                                                  'leake_32[0][0]']               \n","                                                                                                  \n"," conv_34 (Conv2D)               (None, 52, 52, 128)  32768       ['Add_33[0][0]']                 \n","                                                                                                  \n"," bnorm_34 (BatchNormalization)  (None, 52, 52, 128)  512         ['conv_34[0][0]']                \n","                                                                                                  \n"," leake_34 (LeakyReLU)           (None, 52, 52, 128)  0           ['bnorm_34[0][0]']               \n","                                                                                                  \n"," conv_35 (Conv2D)               (None, 52, 52, 256)  294912      ['leake_34[0][0]']               \n","                                                                                                  \n"," bnorm_35 (BatchNormalization)  (None, 52, 52, 256)  1024        ['conv_35[0][0]']                \n","                                                                                                  \n"," leake_35 (LeakyReLU)           (None, 52, 52, 256)  0           ['bnorm_35[0][0]']               \n","                                                                                                  \n"," Add_36 (Add)                   (None, 52, 52, 256)  0           ['Add_33[0][0]',                 \n","                                                                  'leake_35[0][0]']               \n","                                                                                                  \n"," zero_padding2d_3 (ZeroPadding2  (None, 53, 53, 256)  0          ['Add_36[0][0]']                 \n"," D)                                                                                               \n","                                                                                                  \n"," conv_37 (Conv2D)               (None, 26, 26, 512)  1179648     ['zero_padding2d_3[0][0]']       \n","                                                                                                  \n"," bnorm_37 (BatchNormalization)  (None, 26, 26, 512)  2048        ['conv_37[0][0]']                \n","                                                                                                  \n"," leake_37 (LeakyReLU)           (None, 26, 26, 512)  0           ['bnorm_37[0][0]']               \n","                                                                                                  \n"," conv_38 (Conv2D)               (None, 26, 26, 256)  131072      ['leake_37[0][0]']               \n","                                                                                                  \n"," bnorm_38 (BatchNormalization)  (None, 26, 26, 256)  1024        ['conv_38[0][0]']                \n","                                                                                                  \n"," leake_38 (LeakyReLU)           (None, 26, 26, 256)  0           ['bnorm_38[0][0]']               \n","                                                                                                  \n"," conv_39 (Conv2D)               (None, 26, 26, 512)  1179648     ['leake_38[0][0]']               \n","                                                                                                  \n"," bnorm_39 (BatchNormalization)  (None, 26, 26, 512)  2048        ['conv_39[0][0]']                \n","                                                                                                  \n"," leake_39 (LeakyReLU)           (None, 26, 26, 512)  0           ['bnorm_39[0][0]']               \n","                                                                                                  \n"," Add_40 (Add)                   (None, 26, 26, 512)  0           ['leake_37[0][0]',               \n","                                                                  'leake_39[0][0]']               \n","                                                                                                  \n"," conv_41 (Conv2D)               (None, 26, 26, 256)  131072      ['Add_40[0][0]']                 \n","                                                                                                  \n"," bnorm_41 (BatchNormalization)  (None, 26, 26, 256)  1024        ['conv_41[0][0]']                \n","                                                                                                  \n"," leake_41 (LeakyReLU)           (None, 26, 26, 256)  0           ['bnorm_41[0][0]']               \n","                                                                                                  \n"," conv_42 (Conv2D)               (None, 26, 26, 512)  1179648     ['leake_41[0][0]']               \n","                                                                                                  \n"," bnorm_42 (BatchNormalization)  (None, 26, 26, 512)  2048        ['conv_42[0][0]']                \n","                                                                                                  \n"," leake_42 (LeakyReLU)           (None, 26, 26, 512)  0           ['bnorm_42[0][0]']               \n","                                                                                                  \n"," Add_43 (Add)                   (None, 26, 26, 512)  0           ['Add_40[0][0]',                 \n","                                                                  'leake_42[0][0]']               \n","                                                                                                  \n"," conv_44 (Conv2D)               (None, 26, 26, 256)  131072      ['Add_43[0][0]']                 \n","                                                                                                  \n"," bnorm_44 (BatchNormalization)  (None, 26, 26, 256)  1024        ['conv_44[0][0]']                \n","                                                                                                  \n"," leake_44 (LeakyReLU)           (None, 26, 26, 256)  0           ['bnorm_44[0][0]']               \n","                                                                                                  \n"," conv_45 (Conv2D)               (None, 26, 26, 512)  1179648     ['leake_44[0][0]']               \n","                                                                                                  \n"," bnorm_45 (BatchNormalization)  (None, 26, 26, 512)  2048        ['conv_45[0][0]']                \n","                                                                                                  \n"," leake_45 (LeakyReLU)           (None, 26, 26, 512)  0           ['bnorm_45[0][0]']               \n","                                                                                                  \n"," Add_46 (Add)                   (None, 26, 26, 512)  0           ['Add_43[0][0]',                 \n","                                                                  'leake_45[0][0]']               \n","                                                                                                  \n"," conv_47 (Conv2D)               (None, 26, 26, 256)  131072      ['Add_46[0][0]']                 \n","                                                                                                  \n"," bnorm_47 (BatchNormalization)  (None, 26, 26, 256)  1024        ['conv_47[0][0]']                \n","                                                                                                  \n"," leake_47 (LeakyReLU)           (None, 26, 26, 256)  0           ['bnorm_47[0][0]']               \n","                                                                                                  \n"," conv_48 (Conv2D)               (None, 26, 26, 512)  1179648     ['leake_47[0][0]']               \n","                                                                                                  \n"," bnorm_48 (BatchNormalization)  (None, 26, 26, 512)  2048        ['conv_48[0][0]']                \n","                                                                                                  \n"," leake_48 (LeakyReLU)           (None, 26, 26, 512)  0           ['bnorm_48[0][0]']               \n","                                                                                                  \n"," Add_49 (Add)                   (None, 26, 26, 512)  0           ['Add_46[0][0]',                 \n","                                                                  'leake_48[0][0]']               \n","                                                                                                  \n"," conv_50 (Conv2D)               (None, 26, 26, 256)  131072      ['Add_49[0][0]']                 \n","                                                                                                  \n"," bnorm_50 (BatchNormalization)  (None, 26, 26, 256)  1024        ['conv_50[0][0]']                \n","                                                                                                  \n"," leake_50 (LeakyReLU)           (None, 26, 26, 256)  0           ['bnorm_50[0][0]']               \n","                                                                                                  \n"," conv_51 (Conv2D)               (None, 26, 26, 512)  1179648     ['leake_50[0][0]']               \n","                                                                                                  \n"," bnorm_51 (BatchNormalization)  (None, 26, 26, 512)  2048        ['conv_51[0][0]']                \n","                                                                                                  \n"," leake_51 (LeakyReLU)           (None, 26, 26, 512)  0           ['bnorm_51[0][0]']               \n","                                                                                                  \n"," Add_52 (Add)                   (None, 26, 26, 512)  0           ['Add_49[0][0]',                 \n","                                                                  'leake_51[0][0]']               \n","                                                                                                  \n"," conv_53 (Conv2D)               (None, 26, 26, 256)  131072      ['Add_52[0][0]']                 \n","                                                                                                  \n"," bnorm_53 (BatchNormalization)  (None, 26, 26, 256)  1024        ['conv_53[0][0]']                \n","                                                                                                  \n"," leake_53 (LeakyReLU)           (None, 26, 26, 256)  0           ['bnorm_53[0][0]']               \n","                                                                                                  \n"," conv_54 (Conv2D)               (None, 26, 26, 512)  1179648     ['leake_53[0][0]']               \n","                                                                                                  \n"," bnorm_54 (BatchNormalization)  (None, 26, 26, 512)  2048        ['conv_54[0][0]']                \n","                                                                                                  \n"," leake_54 (LeakyReLU)           (None, 26, 26, 512)  0           ['bnorm_54[0][0]']               \n","                                                                                                  \n"," Add_55 (Add)                   (None, 26, 26, 512)  0           ['Add_52[0][0]',                 \n","                                                                  'leake_54[0][0]']               \n","                                                                                                  \n"," conv_56 (Conv2D)               (None, 26, 26, 256)  131072      ['Add_55[0][0]']                 \n","                                                                                                  \n"," bnorm_56 (BatchNormalization)  (None, 26, 26, 256)  1024        ['conv_56[0][0]']                \n","                                                                                                  \n"," leake_56 (LeakyReLU)           (None, 26, 26, 256)  0           ['bnorm_56[0][0]']               \n","                                                                                                  \n"," conv_57 (Conv2D)               (None, 26, 26, 512)  1179648     ['leake_56[0][0]']               \n","                                                                                                  \n"," bnorm_57 (BatchNormalization)  (None, 26, 26, 512)  2048        ['conv_57[0][0]']                \n","                                                                                                  \n"," leake_57 (LeakyReLU)           (None, 26, 26, 512)  0           ['bnorm_57[0][0]']               \n","                                                                                                  \n"," Add_58 (Add)                   (None, 26, 26, 512)  0           ['Add_55[0][0]',                 \n","                                                                  'leake_57[0][0]']               \n","                                                                                                  \n"," conv_59 (Conv2D)               (None, 26, 26, 256)  131072      ['Add_58[0][0]']                 \n","                                                                                                  \n"," bnorm_59 (BatchNormalization)  (None, 26, 26, 256)  1024        ['conv_59[0][0]']                \n","                                                                                                  \n"," leake_59 (LeakyReLU)           (None, 26, 26, 256)  0           ['bnorm_59[0][0]']               \n","                                                                                                  \n"," conv_60 (Conv2D)               (None, 26, 26, 512)  1179648     ['leake_59[0][0]']               \n","                                                                                                  \n"," bnorm_60 (BatchNormalization)  (None, 26, 26, 512)  2048        ['conv_60[0][0]']                \n","                                                                                                  \n"," leake_60 (LeakyReLU)           (None, 26, 26, 512)  0           ['bnorm_60[0][0]']               \n","                                                                                                  \n"," Add_61 (Add)                   (None, 26, 26, 512)  0           ['Add_58[0][0]',                 \n","                                                                  'leake_60[0][0]']               \n","                                                                                                  \n"," zero_padding2d_4 (ZeroPadding2  (None, 27, 27, 512)  0          ['Add_61[0][0]']                 \n"," D)                                                                                               \n","                                                                                                  \n"," conv_62 (Conv2D)               (None, 13, 13, 1024  4718592     ['zero_padding2d_4[0][0]']       \n","                                )          
…
4  4096        ['conv_78[0][0]']                \n","                                )                                                                 \n","                                                                                                  \n"," leake_78 (LeakyReLU)           (None, 13, 13, 1024  0           ['bnorm_78[0][0]']               \n","                                )                                                                 \n","                                                                                                  \n"," conv_79 (Conv2D)               (None, 13, 13, 512)  524288      ['leake_78[0][0]']               \n","                                                                                                  \n"," bnorm_79 (BatchNormalization)  (None, 13, 13, 512)  2048        ['conv_79[0][0]']                \n","                                                                                                  \n"," leake_79 (LeakyReLU)           (None, 13, 13, 512)  0           ['bnorm_79[0][0]']               \n","                                                                                                  \n"," conv_84 (Conv2D)               (None, 13, 13, 256)  131072      ['leake_79[0][0]']               \n","                                                                                                  \n"," bnorm_84 (BatchNormalization)  (None, 13, 13, 256)  1024        ['conv_84[0][0]']                \n","                                                                                                  \n"," leake_84 (LeakyReLU)           (None, 13, 13, 256)  0           ['bnorm_84[0][0]']               \n","                                                                                                  \n"," UpSampling_85 (UpSampling2D)   (None, 26, 26, 256)  0           ['leake_84[0][0]']               \n","                                                                                                  \n"," Concatenate_86 (Concatenate)   (None, 26, 26, 768)  0           ['UpSampling_85[0][0]',          \n","                                                                  'Add_61[0][0]']                 \n","                                                                                                  \n"," conv_87 (Conv2D)               (None, 26, 26, 256)  196608      ['Concatenate_86[0][0]']         \n","                                                                                                  \n"," bnorm_87 (BatchNormalization)  (None, 26, 26, 256)  1024        ['conv_87[0][0]']                \n","                                                                                                  \n"," leake_87 (LeakyReLU)           (None, 26, 26, 256)  0           ['bnorm_87[0][0]']               \n","                                                                                                  \n"," conv_88 (Conv2D)               (None, 26, 26, 512)  1179648     ['leake_87[0][0]']               \n","                                                                                                  \n"," bnorm_88 (BatchNormalization)  (None, 26, 26, 512)  2048        ['conv_88[0][0]']                \n","                                                                                                  \n"," leake_88 (LeakyReLU)           (None, 26, 26, 512)  0           ['bnorm_88[0][0]']               \n","                                                                                                  \n"," conv_89 (Conv2D)               (None, 26, 26, 256)  131072      ['leake_88[0][0]']               \n","                                                                                                  \n"," bnorm_89 (BatchNormalization)  (None, 26, 26, 256)  1024        ['conv_89[0][0]']                \n","                                                                                                  \n"," leake_89 (LeakyReLU)           (None, 26, 26, 256)  0           ['bnorm_89[0][0]']               \n","                                                                                                  \n"," conv_90 (Conv2D)               (None, 26, 26, 512)  1179648     ['leake_89[0][0]']               \n","                                                                                                  \n"," bnorm_90 (BatchNormalization)  (None, 26, 26, 512)  2048        ['conv_90[0][0]']                \n","                                                                                                  \n"," leake_90 (LeakyReLU)           (None, 26, 26, 512)  0           ['bnorm_90[0][0]']               \n","                                                                                                  \n"," conv_91 (Conv2D)               (None, 26, 26, 256)  131072      ['leake_90[0][0]']               \n","                                                                                                  \n"," bnorm_91 (BatchNormalization)  (None, 26, 26, 256)  1024        ['conv_91[0][0]']                \n","                                                                                                  \n"," leake_91 (LeakyReLU)           (None, 26, 26, 256)  0           ['bnorm_91[0][0]']               \n","                                                                                                  \n"," conv_96 (Conv2D)               (None, 26, 26, 128)  32768       ['leake_91[0][0]']               \n","                                                                                                  \n"," bnorm_96 (BatchNormalization)  (None, 26, 26, 128)  512         ['conv_96[0][0]']                \n","                                                                                                  \n"," leake_96 (LeakyReLU)           (None, 26, 26, 128)  0           ['bnorm_96[0][0]']               \n","                                                                                                  \n"," UpSampling_97 (UpSampling2D)   (None, 52, 52, 128)  0           ['leake_96[0][0]']               \n","                                                                                                  \n"," Concatenate_98 (Concatenate)   (None, 52, 52, 384)  0           ['UpSampling_97[0][0]',          \n","                                                                  'Add_36[0][0]']                 \n","                                                                                                  \n"," conv_99 (Conv2D)               (None, 52, 52, 128)  49152       ['Concatenate_98[0][0]']         \n","                                                                                                  \n"," bnorm_99 (BatchNormalization)  (None, 52, 52, 128)  512         ['conv_99[0][0]']                \n","                                                                                                  \n"," leake_99 (LeakyReLU)           (None, 52, 52, 128)  0           ['bnorm_99[0][0]']               \n","                                                                                                  \n"," conv_100 (Conv2D)              (None, 52, 52, 256)  294912      ['leake_99[0][0]']               \n","                                                                                                  \n"," bnorm_100 (BatchNormalization)  (None, 52, 52, 256)  1024       ['conv_100[0][0]']               \n","                                                                                                  \n"," leake_100 (LeakyReLU)          (None, 52, 52, 256)  0           ['bnorm_100[0][0]']              \n","                                                                                                  \n"," conv_101 (Conv2D)              (None, 52, 52, 128)  32768       ['leake_100[0][0]']              \n","                                                                                                  \n"," bnorm_101 (BatchNormalization)  (None, 52, 52, 128)  512        ['conv_101[0][0]']               \n","                                                                                                  \n"," leake_101 (LeakyReLU)          (None, 52, 52, 128)  0           ['bnorm_101[0][0]']              \n","                                                                                                  \n"," conv_102 (Conv2D)              (None, 52, 52, 256)  294912      ['leake_101[0][0]']              \n","                                                                                                  \n"," bnorm_102 (BatchNormalization)  (None, 52, 52, 256)  1024       ['conv_102[0][0]']               \n","                                                                                                  \n"," leake_102 (LeakyReLU)          (None, 52, 52, 256)  0           ['bnorm_102[0][0]']              \n","                                                                                                  \n"," conv_103 (Conv2D)              (None, 52, 52, 128)  32768       ['leake_102[0][0]']              \n","                                                                                                  \n"," bnorm_103 (BatchNormalization)  (None, 52, 52, 128)  512        ['conv_103[0][0]']               \n","                                                                                                  \n"," leake_103 (LeakyReLU)          (None, 52, 52, 128)  0           ['bnorm_103[0][0]']              \n","                                                                                                  \n"," conv_80 (Conv2D)               (None, 13, 13, 1024  4718592     ['leake_79[0][0]']               \n","                                )                                                                 \n","                                                                                                  \n"," conv_92 (Conv2D)               (None, 26, 26, 512)  1179648     ['leake_91[0][0]']               \n","                                                                                                  \n"," conv_104 (Conv2D)              (None, 52, 52, 256)  294912      ['leake_103[0][0]']              \n","                                                                                                  \n"," bnorm_80 (BatchNormalization)  (None, 13, 13, 1024  4096        ['conv_80[0][0]']                \n","                                )                                                                 \n","                                                                                                  \n"," bnorm_92 (BatchNormalization)  (None, 26, 26, 512)  2048        ['conv_92[0][0]']                \n","                                                                                                  \n"," bnorm_104 (BatchNormalization)  (None, 52, 52, 256)  1024       ['conv_104[0][0]']               \n","                                                                                                  \n"," leake_80 (LeakyReLU)           (None, 13, 13, 1024  0           ['bnorm_80[0][0]']               \n","                                )                                                                 \n","                                                                                                  \n"," leake_92 (LeakyReLU)           (None, 26, 26, 512)  0           ['bnorm_92[0][0]']               \n","                                                                                                  \n"," leake_104 (LeakyReLU)          (None, 52, 52, 256)  0           ['bnorm_104[0][0]']              \n","                                                                                                  \n"," conv_81 (Conv2D)               (None, 13, 13, 54)   55350       ['leake_80[0][0]']               \n","                                                                                                  \n"," conv_93 (Conv2D)               (None, 26, 26, 54)   27702       ['leake_92[0][0]']               \n","                                                                                                  \n"," conv_105 (Conv2D)              (None, 52, 52, 54)   13878       ['leake_104[0][0]']              \n","                                                                                                  \n","==================================================================================================\n","Total params: 61,640,962\n","Trainable params: 61,588,354\n","Non-trainable params: 52,608\n","______________________________________________________
…
