…
ontent.com/a/default-user=s64","userId":"11276804272897708630"}},"outputId":"069ba3f1-8cbf-4572-df11-5c93d0f2f12d"},"execution_count":168,"outputs":[{"output_type":"stream","name":"stdout","text":["Model: \"model_5\"\n","_________________________________________________________________\n"," Layer (type)                Output Shape              Param #   \n","=================================================================\n"," input_10 (InputLayer)       [(None, 17, 11)]          0         \n","                                                                 \n"," flatten_27 (Flatten)        (None, 187)               0         \n","                                                                 \n"," repeat_vector_18 (RepeatVec  (None, 4, 187)           0         \n"," tor)                                                            \n","                                                                 \n"," conv1d_18 (Conv1D)          (None, 4, 34)             31824     \n","                                                                 \n"," max_pooling1d_18 (MaxPoolin  (None, 2, 34)            0         \n"," g1D)                                                            \n","                                                                 \n"," flatten_28 (Flatten)        (None, 68)                0         \n","                                                                 \n"," repeat_vector_19 (RepeatVec  (None, 4, 68)            0         \n"," tor)                                                            \n","                                                                 \n"," conv1d_19 (Conv1D)          (None, 4, 17)             5797      \n","                                                                 \n"," max_pooling1d_19 (MaxPoolin  (None, 2, 17)            0         \n"," g1D)                                                            \n","                                                                 \n"," flatten_29 (Flatten)        (None, 34)                0         \n","                                                                 \n"," dense_18 (Dense)            (None, 1700)              59500     \n","                                                                 \n"," dropout_9 (Dropout)         (None, 1700)              0         \n","                                                                 \n"," dense_19 (Dense)            (None, 3)                 5103      \n","                                                                 \n","=================================================================\n","Total params: 102,224\n","Trainable params: 102,224\n","Non-trainable params: 0\n","_________________________________________________________________\n","Обучение 70 эпох\n","Epoch 1/70\n"]},{"output_type":"error","ename":"ValueError","evalue":"igno
…
