…
ords\n","compile_train_eval_model(model_text_emb_20,\n","                         x_train, y_train,\n","                         x_test, y_test,\n","                         class_labels=CLASS_LIST,\n","                         title='Embedding/20')"],"execution_count":null,"outputs":[{"output_type":"stream","name":"stdout","text":["Model: \"sequential\"\n","_________________________________________________________________\n","Layer (type)                 Output Shape              Param #   \n","=================================================================\n","embedding (Embedding)        (None, 1000, 30)          600000    \n","_________________________________________________________________\n","spatial_dropout1d (SpatialDr (None, 1000, 30)          0         \n","_________________________________________________________________\n","flatten (Flatten)            (None, 30000)             0         \n","_________________________________________________________________\n","batch_normalization (BatchNo (None, 30000)             120000    \n","_________________________________________________________________\n","dense (Dense)                (None, 200)               6000200   \n","_________________________________________________________________\n","dropout (Dropout)            (None, 200)               0         \n","_________________________________________________________________\n","batch_normalization_1 (Batch (None, 200)               800       \n","_________________________________________________________________\n","dense_1 (Dense)              (None, 20)                4020      \n","=================================================================\n","Total params: 6,725,020\n","Trainable params: 6,664,620\n","Non-trainable params: 60,400\n","_________________________________________________________________\n","Epoch 1/5\n","472/472 [==============================] - 135s 283ms/step - loss: 1.1310 - accuracy: 0.6966 - val_loss: 1.0297 - val_accuracy: 0.7285\n","Epo
…
