…
                    validation_generator,\n","                         test_generator,\n","                         epochs = 100,\n","                         class_labels=CLASS_LIST,\n","                         title='Сверточный классификатор')"],"execution_count":null,"outputs":[{"output_type":"stream","name":"stdout","text":["Model: \"sequential_5\"\n","_________________________________________________________________\n"," Layer (type)                Output Shape              Param #   \n","=================================================================\n"," batch_normalization_20 (Bat  (None, 163, 263, 3)      12        \n"," chNormalization)                                                \n","                                                                 \n"," conv2d_40 (Conv2D)          (None, 163, 263, 256)     7168      \n","                                                                 \n"," conv2d_41 (Conv2D)          (None, 163, 263, 256)     590080    \n","                                                                 \n"," max_pooling2d_20 (MaxPoolin  (None, 54, 87, 256)      0         \n"," g2D)                                                            \n","                                                                 \n"," dropout_14 (Dropout)        (None, 54, 87, 256)       0         \n","                                                                 \n"," batch_normalization_21 (Bat  (None, 54, 87, 256)      1024      \n"," chNormalization)                                                \n","                                                                 \n"," conv2d_42 (Conv2D)          (None, 54, 87, 512)       1180160   \n","                                                                 \n"," conv2d_43 (Conv2D)          (None, 54, 87, 512)       2359808   \n","                                                                 \n"," max_pooling2d_21 (MaxPoolin  (None, 18, 29, 512)      0         \n"," g2D)                                                            \n","                                                                 \n"," dropout_15 (Dropout)        (None, 18, 29, 512)       0         \n","                                                                 \n"," batch_normalization_22 (Bat  (None, 18, 29, 512)      2048      \n"," chNormalization)                                                \n","                                                                 \n"," conv2d_44 (Conv2D)          (None, 18, 29, 512)       2359808   \n","                                                                 \n"," conv2d_45 (Conv2D)          (None, 18, 29, 512)       2359808   \n","                                                                 \n"," max_pooling2d_22 (MaxPoolin  (None, 6, 9, 512)        0         \n"," g2D)                                                            \n","                                                                 \n"," dropout_16 (Dropout)        (None, 6, 9, 512)         0         \n","                                                                 \n"," batch_normalization_23 (Bat  (None, 6, 9, 512)        2048      \n"," chNormalization)                                                \n","                                                                 \n"," conv2d_46 (Conv2D)          (None, 6, 9, 512)         2359808   \n","                                                                 \n"," conv2d_47 (Conv2D)          (None, 6, 9, 512)         2359808   \n","                                                                 \n"," max_pooling2d_23 (MaxPoolin  (None, 3, 4, 512)        0         \n"," g2D)                                                            \n","                                                                 \n"," dropout_17 (Dropout)        (None, 3, 4, 512)         0         \n","                                                                 \n"," batch_normalization_24 (Bat  (None, 3, 4, 512)        2048      \n"," chNormalization)                                                \n","                                                                 \n"," conv2d_48 (Conv2D)          (None, 3, 4, 712)         3281608   \n","                                                                 \n"," conv2d_49 (Conv2D)          (None, 3, 4, 712)         4563208   \n","                                                                 \n"," max_pooling2d_24 (MaxPoolin  (None, 1, 2, 712)        0         \n"," g2D)                                                            \n","                                                                 \n"," dropout_18 (Dropout)        (None, 1, 2, 712)         0         \n","                                                                 \n"," flatten_4 (Flatten)         (None, 1424)              0         \n","                                                                 \n"," dense_12 (Dense)            (None, 1024)              1459200   \n","                                                                 \n"," dense_13 (Dense)            (None, 1546)              1584650   \n","                                                                 \n"," dense_14 (Dense)            (None, 3)                 4641      \n","                                                                 \n","=================================================================\n","Total params: 24,476,935\n","Trainable params: 24,473,345\n","Non-trainable params: 3,590\n","_________________________________________________________________\n","Epoch 1/100\n","74/74 [==============================] - 71s 930ms/step - loss: 1.228
…
