…
ff-14b4cb6aec58"},"source":["model_seq7 = sequential_PSPnet(7,\n","                                (IMG_WIDTH, IMG_HEIGHT, 3))\n","model_seq7.summary()"],"execution_count":73,"outputs":[{"output_type":"stream","name":"stdout","text":["Model: \"model_4\"\n","__________________________________________________________________________________________________\n","Layer (type)                    Output Shape         Param #     Connected to                     \n","==================================================================================================\n","input_5 (InputLayer)            [(None, 384, 512, 3) 0                                            \n","__________________________________________________________________________________________________\n","block0_conv1 (Conv2D)           (None, 384, 512, 32) 896         input_5[0][0]                    \n","__________________________________________________________________________________________________\n","max_pooling2d_6 (MaxPooling2D)  (None, 192, 256, 32) 0           block0_conv1[0][0]               \n","__________________________________________________________________________________________________\n","max_pooling2d_7 (MaxPooling2D)  (None, 96, 128, 32)  0           block0_conv1[0][0]               \n","__________________________________________________________________________________________________\n","max_pooling2d_8 (MaxPooling2D)  (None, 48, 64, 32)   0           block0_conv1[0][0]               \n","__________________________________________________________________________________________________\n","block1_conv1 (Conv2D)           (None, 192, 256, 32) 9248        max_pooling2d_6[0][0]            \n","__________________________________________________________________________________________________\n","block1_conv3 (Conv2D)           (None, 96, 128, 32)  9248        max_pooling2d_7[0][0]            \n","__________________________________________________________________________________________________\n","block1_conv4 (Conv2D)           (None, 48, 64, 32)   9248        max_pooling2d_8[0][0]            \n","__________________________________________________________________________________________________\n","conv2d_transpose_6 (Conv2DTrans (None, 384, 512, 32) 4128        block1_conv1[0][0]               \n","__________________________________________________________________________________________________\n","conv2d_transpose_7 (Conv2DTrans (None, 384, 512, 32) 4128        block1_conv3[0][0]               \n","__________________________________________________________________________________________________\n","conv2d_transpose_8 (Conv2DTrans (None, 384, 512, 32) 4128        block1_conv4[0][0]               \n","__________________________________________________________________________________________________\n","activation_14 (Activation)      (None, 384, 512, 32) 0           conv2d_transpose_6[0][0]         \n","__________________________________________________________________________________________________\n","activation_15 (Activation)      (None, 384, 512, 32) 0           conv2d_transpose_7[0][0]         \n","__________________________________________________________________________________________________\n","activation_16 (Activation)      (None, 384, 512, 32) 0           conv2d_transpose_8[0][0]         \n","__________________________________________________________________________________________________\n","concatenate_2 (Concatenate)     (None, 384, 512, 128 0           block0_conv1[0][0]               \n","                                                                 activation_14[0][0]              \n","                                                                 activation_15[0][0]              \n","                                                                 activation_16[0][0]              \n","__________________________________________________________________________________________________\n","conv2d_8 (Conv2D)               (None, 384, 512, 32) 36896       concatenate_2[0][0]              \n","__________________________________________________________________________________________________\n","conv2d_9 (Conv2D)               (None, 384, 512, 32) 9248        conv2d_8[0][0]                   \n","__________________________________________________________________________________________________\n","conv2d_10 (Conv2D)              (None, 384, 512, 7)  2023        conv2d_9[0][0]                   \n","==================================================================================================\n","Total params: 89,191\n","Trainable params: 89,191\n","Non-trainable params: 0\n","__________________________________________________________________________________________________\n"]}]},{"cell_type":"code","metadata":{"colab":{"base_uri":"https://lo
…
